…
  value: 100
steps_per_task:
  desc: null
  value: 500
student:
  desc: null
  value: <stable_baselines3.td3.td3.TD3 object at 0x000002811C175100>
student_params:
  desc: null
  value:
    _current_progress_remaining: 1
    _episode_num: 0
    _last_dones: null
    _last_obs: null
    _last_original_obs: null
    _n_updates: 0
    _total_timesteps: 0
    _vec_normalize_env: null
    action_noise: null
    action_space: Box(-2.0, 2.0, (1,), float32)
    actor: "Actor(\n  (features_extractor): FlattenExtractor(\n    (flatten): Flatten(start_dim=1,\
      \ end_dim=-1)\n  )\n  (mu): Sequential(\n    (0): Linear(in_features=3, out_features=8,\
      \ bias=True)\n    (1): ReLU()\n    (2): Linear(in_features=8, out_features=8,\
      \ bias=True)\n    (3): ReLU()\n    (4): Linear(in_features=8, out_features=1,\
      \ bias=True)\n    (5): Tanh()\n  )\n)"
    actor_target: "Actor(\n  (features_extractor): FlattenExtractor(\n    (flatten):\
      \ Flatten(start_dim=1, end_dim=-1)\n  )\n  (mu): Sequential(\n    (0): Linear(in_features=3,\
      \ out_features=8, bias=True)\n    (1): ReLU()\n    (2): Linear(in_features=8,\
      \ out_features=8, bias=True)\n    (3): ReLU()\n    (4): Linear(in_features=8,\
      \ out_features=1, bias=True)\n    (5): Tanh()\n  )\n)"
    batch_size: 100
    buffer_size: 1000000
    critic: "ContinuousCritic(\n  (features_extractor): FlattenExtractor(\n    (flatten):\
      \ Flatten(start_dim=1, end_dim=-1)\n  )\n  (qf0): Sequential(\n    (0): Linear(in_features=4,\
      \ out_features=8, bias=True)\n    (1): ReLU()\n    (2): Linear(in_features=8,\
      \ out_features=8, bias=True)\n    (3): ReLU()\n    (4): Linear(in_features=8,\
      \ out_features=1, bias=True)\n  )\n  (qf1): Sequential(\n    (0): Linear(in_features=4,\
      \ out_features=8, bias=True)\n    (1): ReLU()\n    (2): Linear(in_features=8,\
      \ out_features=8, bias=True)\n    (3): ReLU()\n    (4): Linear(in_features=8,\
      \ out_features=1, bias=True)\n  )\n)"
    critic_target: "ContinuousCritic(\n  (features_extractor): FlattenExtractor(\n\
      \    (flatten): Flatten(start_dim=1, end_dim=-1)\n  )\n  (qf0): Sequential(\n\
      \    (0): Linear(in_features=4, out_features=8, bias=True)\n    (1): ReLU()\n\
      \    (2): Linear(in_features=8, out_features=8, bias=True)\n    (3): ReLU()\n\
      \    (4): Linear(in_features=8, out_features=1, bias=True)\n  )\n  (qf1): Sequential(\n\
      \    (0): Linear(in_features=4, out_features=8, bias=True)\n    (1): ReLU()\n\
      \    (2): Linear(in_features=8, out_features=8, bias=True)\n    (3): ReLU()\n\
      \    (4): Linear(in_features=8, out_features=1, bias=True)\n  )\n)"
    device: cuda
    env: <stable_baselines3.common.vec_env.dummy_vec_env.DummyVecEnv object at 0x000002811C1751F0>
    ep_info_buffer: null
    ep_success_buffer: null
    eval_env: null
    gamma: 0.99
    gradient_steps: -1
    learning_rate: 0.001
    learning_starts: 100
    lr_schedule: stable_baselines3.common.utils.constant_fn.<locals>.func
    n_envs: 1
    num_timesteps: 0
    observation_space: Box(-8.0, 8.0, (3,), float32)
    optimize_memory_usage: false
    policy: "TD3Policy(\n  (actor): Actor(\n    (features_extractor): FlattenExtractor(\n\
      \      (flatten): Flatten(start_dim=1, end_dim=-1)\n    )\n    (mu): Sequential(\n\
      \      (0): Linear(in_features=3, out_features=8, bias=True)\n      (1): ReLU()\n\
      \      (2): Linear(in_features=8, out_features=8, bias=True)\n      (3): ReLU()\n\
      \      (4): Linear(in_features=8, out_features=1, bias=True)\n      (5): Tanh()\n\
      \    )\n  )\n  (actor_target): Actor(\n    (features_extractor): FlattenExtractor(\n\
      \      (flatten): Flatten(start_dim=1, end_dim=-1)\n    )\n    (mu): Sequential(\n\
      \      (0): Linear(in_features=3, out_features=8, bias=True)\n      (1): ReLU()\n\
      \      (2): Linear(in_features=8, out_features=8, bias=True)\n      (3): ReLU()\n\
      \      (4): Linear(in_features=8, out_features=1, bias=True)\n      (5): Tanh()\n\
      \    )\n  )\n  (critic): ContinuousCritic(\n    (features_extractor): FlattenExtractor(\n\
      \      (flatten): Flatten(start_dim=1, end_dim=-1)\n    )\n    (qf0): Sequential(\n\
      \      (0): Linear(in_features=4, out_features=8, bias=True)\n      (1): ReLU()\n\
      \      (2): Linear(in_features=8, out_features=8, bias=True)\n      (3): ReLU()\n\
      \      (4): Linear(in_features=8, out_features=1, bias=True)\n    )\n    (qf1):\
      \ Sequential(\n      (0): Linear(in_features=4, out_features=8, bias=True)\n\
      \      (1): ReLU()\n      (2): Linear(in_features=8, out_features=8, bias=True)\n\
      \      (3): ReLU()\n      (4): Linear(in_features=8, out_features=1, bias=True)\n\
      \    )\n  )\n  (critic_target): ContinuousCritic(\n    (features_extractor):\
      \ FlattenExtractor(\n      (flatten): Flatten(start_dim=1, end_dim=-1)\n   \
      \ )\n    (qf0): Sequential(\n      (0): Linear(in_features=4, out_features=8,\
      \ bias=True)\n      (1): ReLU()\n      (2): Linear(in_features=8, out_features=8,\
      \ bias=True)\n      (3): ReLU()\n      (4): Linear(in_features=8, out_features=1,\
      \ bias=True)\n    )\n    (qf1): Sequential(\n      (0): Linear(in_features=4,\
      \ out_features=8, bias=True)\n      (1): ReLU()\n      (2): Linear(in_features=8,\
      \ out_features=8, bias=True)\n      (3): ReLU()\n      (4): Linear(in_features=8,\
      \ out_features=1, bias=True)\n    )\n  )\n)"
    policy_class: stable_baselines3.td3.policies.TD3Policy
    policy_delay: 2
    policy_kwargs:
      net_arch:
      - 8
      - 8
    remove_time_limit_termination: false
    replay_buffer: <stable_baselines3.common.buffers.ReplayBuffer object at 0x000002811C175B20>
    sde_sample_freq: -1
    seed: null
    start_time: null
    target_noise_clip: 0.5
…
