{"format": "torch", "nodes": [{"name": "actor", "id": 2602213333840, "class_name": "Actor(\n  (features_extractor): FlattenExtractor(\n    (flatten): Flatten(start_dim=1, end_dim=-1)\n  )\n  (latent_pi): Sequential(\n    (0): Linear(in_features=3, out_features=8, bias=True)\n    (1): ReLU()\n    (2): Linear(in_features=8, out_features=8, bias=True)\n    (3): ReLU()\n  )\n  (mu): Linear(in_features=8, out_features=1, bias=True)\n  (log_std): Linear(in_features=8, out_features=1, bias=True)\n)", "parameters": [["latent_pi.0.weight", [8, 3]], ["latent_pi.0.bias", [8]], ["latent_pi.2.weight", [8, 8]], ["latent_pi.2.bias", [8]], ["mu.weight", [1, 8]], ["mu.bias", [1]], ["log_std.weight", [1, 8]], ["log_std.bias", [1]]], "output_shape": [[1, 1]], "num_parameters": [24, 8, 64, 8, 8, 1, 8, 1]}, {"name": "critic_target", "id": 2600749035632, "class_name": "ContinuousCritic(\n  (features_extractor): FlattenExtractor(\n    (flatten): Flatten(start_dim=1, end_dim=-1)\n  )\n  (qf0): Sequential(\n    (0): Linear(in_features=4, out_features=8, bias=True)\n    (1): ReLU()\n    (2): Linear(in_features=8, out_features=8, bias=True)\n    (3): ReLU()\n    (4): Linear(in_features=8, out_features=1, bias=True)\n  )\n  (qf1): Sequential(\n    (0): Linear(in_features=4, out_features=8, bias=True)\n    (1): ReLU()\n    (2): Linear(in_features=8, out_features=8, bias=True)\n    (3): ReLU()\n    (4): Linear(in_features=8, out_features=1, bias=True)\n  )\n)", "parameters": [["qf0.0.weight", [8, 4]], ["qf0.0.bias", [8]], ["qf0.2.weight", [8, 8]], ["qf0.2.bias", [8]], ["qf0.4.weight", [1, 8]], ["qf0.4.bias", [1]], ["qf1.0.weight", [8, 4]], ["qf1.0.bias", [8]], ["qf1.2.weight", [8, 8]], ["qf1.2.bias", [8]], ["qf1.4.weight", [1, 8]], ["qf1.4.bias", [1]]], "output_shape": [[256, 1], [256, 1]], "num_parameters": [32, 8, 64, 8, 8, 1, 32, 8, 64, 8, 8, 1]}, {"name": "critic", "id": 2602213334032, "class_name": "ContinuousCritic(\n  (features_extractor): FlattenExtractor(\n    (flatten): Flatten(start_dim=1, end_dim=-1)\n  )\n  (qf0): Sequential(\n    (0): Linear(in_features=4, out_features=8, bias=True)\n    (1): ReLU()\n    (2): Linear(in_features=8, out_features=8, bias=True)\n    (3): ReLU()\n    (4): Linear(in_features=8, out_features=1, bias=True)\n  )\n  (qf1): Sequential(\n    (0): Linear(in_features=4, out_features=8, bias=True)\n    (1): ReLU()\n    (2): Linear(in_features=8, out_features=8, bias=True)\n    (3): ReLU()\n    (4): Linear(in_features=8, out_features=1, bias=True)\n  )\n)", "parameters": [["qf0.0.weight", [8, 4]], ["qf0.0.bias", [8]], ["qf0.2.weight", [8, 8]], ["qf0.2.bias", [8]], ["qf0.4.weight", [1, 8]], ["qf0.4.bias", [1]], ["qf1.0.weight", [8, 4]], ["qf1.0.bias", [8]], ["qf1.2.weight", [8, 8]], ["qf1.2.bias", [8]], ["qf1.4.weight", [1, 8]], ["qf1.4.bias", [1]]], "output_shape": [[256, 1], [256, 1]], "num_paramet
…
